models/Aiidee.onnx (onnx, 205430 bytes, 9 tensors)

layer1.weight f4 [32, 1536]
0.0011277465 -0.013999807 -0.011459357 -0.012971733 -0.008604738 -0.00885097 -0.008906672 -0.008662562
-0.024376685 -0.008360166 0.010742816 0.0021359585 -0.021010354 -0.0072343415 0.024319053 -0.0057393597
-0.028882274 -0.0006215495 0.0062937965 -0.020835767 0.021273727 0.012701407 0.017836919 -0.005551776
-0.007289657 0.02617256 -0.0004144218 0.026763633 0.014142904 0.00718087 -0.00039478735 0.0109431865
0.0038307433 -0.017046567 -0.0036570954 -0.022694945 0.011581172 -0.008814303 0.002861114 0.0070714178
0.013818296 0.0021909038 -0.013612902 -0.0143301925 0.024698835 -0.011196913 0.018791424 0.01821671
0.012565554 0.033059534 0.027425116 0.0077253357 -0.010284146 0.029835984 -0.014694595 -0.011414395
-0.014758044 0.0058875987 0.023583386 0.0009643426 0.018795934 0.022195065 0.02978172 -0.0122985635
-0.0108140055 0.007155325 -0.013569391 0.016862426 -0.025799373 0.007889164 -0.00492071 -0.020644737
-0.01828234 -0.012657426 -0.013705106 -0.0080723455 0.039412018 -0.009928929 -0.0018900408 -0.016791513
0.00047009686 -0.01766829 -0.02461372 0.01676068 -0.016145937 -0.00044598215 0.020413764 0.021567354
0.020533532 0.017587503 0.00016361411 -0.0047755805 -0.01092037 -0.01410112 0.0016942876 0.01698242
0.01180516 -0.003234892 -0.023159051 0.0067870324 0.022416547 0.0042514475 0.020081129 0.011514673
0.004873188 0.02196186 -0.01333342 0.0025794278 -0.0002862593 -0.022384824 -0.015079676 -0.009172996
-0.01404178 0.0059888773 -0.016586686 0.021000832 0.011609051 -0.014697024 0.0063472926 -0.017770104
0.009909114 0.011544756 -0.012950994 0.0188144 -0.022496205 0.018969143 0.0063812947 -0.026994854
0.01466253 0.016262347 -0.013454751 -0.020580666 -0.019401582 -0.019394837 -0.0014284593 0.0026841662
-0.018241022 0.017625822 0.015352154 0.021109244 -0.003881801 0.015433333 0.015501389 -0.0052552396
-0.001612413 0.021353776 -0.020701583 -0.005606229 -0.0004496298 -0.018821005 -0.010055985 -0.022383273
0.019894345 -0.024719873 0.0027589626 -0.0034212284 -0.01867875 -0.006192514 -0.014745611 -0.012818151
-0.0017521144 -0.01487792 0.032284368 0.02531904 0.0146562625 0.013358868 0.003822352 -0.012182549
-0.0036142997 -0.009090462 -0.0010785026 0.004501163 0.01870456 0.0032906753 0.0067000757 -0.018946355
0.013867006 0.0043758205 0.024943447 0.023011578 0.020859985 0.00938488 0.010653552 0.015085768
-0.020396803 0.004905373 -0.007594903 -0.02960182 0.01301082 -0.021887088 -0.023980303 0.019851698
0.008783763 -0.015190918 -0.0036836765 0.012991931 0.019835738 0.014632123 -0.011600927 0.010228333
-0.013719508 0.017764017 0.0015070637 -0.023129147 0.007408138 -0.015583196 0.0101239765 0.00013784386
0.0014360092 0.032062415 -0.018214725 -0.0038989035 -0.010078027 0.0052223015 -0.01861432 -0.02210538
0.024204876 0.017296825 0.013800293 0.0067543867 0.016656337 0.011129595 0.019135118 -0.01819178
0.02236536 -0.029698757 -0.0074837334 0.010705114 -0.002924598 -0.011836113 -0.011976952 -0.006716842
-0.019285245 0.016831102 0.015404655 0.004442297 -0.002409764 -0.025155175 0.02194109 -0.014576107
0.007181813 0.023196287 -0.014055711 0.011760421 0.004340638 0.020383598 0.009863765 0.021765633
0.0036224432 -0.0026736197 0.018028218 0.01313716 -0.01765971 -0.006444422 0.014038187 0.00016193991
00000000: e5d0 933a 725f 65bc 07c0 3bbc 6487 54bc
00000010: e3fa 0cbc a903 11bc 4aed 11bc 6bed 0dbc
00000020: 9db1 c7bc 14f9 08bc a302 303c 70fb 0b3b
00000030: e81d acbc 0e0e edbb c038 c73c 3d11 bcbb
00000040: 859a ecbc 7bef 22ba 313c ce3b c5af aabc
00000050: 3d46 ae3c 9019 503c bb1e 923c aceb b5bb
00000060: 13de eebb d667 d63c c146 d9b9 683f db3c
00000070: a4b7 673c 814d eb3b 76fb ceb9 0d4b 333c
00000080: 350d 7b3b 3ea5 8bbc e1ab 6fbb c0ea b9bc
00000090: f5be 3d3c de69 10bc 8781 3b3b 5ab7 e73b
000000a0: 2266 623c 4495 0f3b a608 5fbc 2fc9 6abc
000000b0: 3655 ca3c 4273 37bc 79f0 993c 363b 953c
000000c0: c1df 4d3c 6f69 073d a3aa e03c d024 fd3b
000000d0: d67e 28bc 986a f43c 99c1 70bc 7103 3bbc
000000e0: b9cb 71bc c2ec c03b f231 c13c f0cb 7c3a
000000f0: eef9 993c 6dd2 b53c cbf8 f33c ea7f 49bc
00000100: 3a2d 31bc 3777 ea3b 2752 5ebc 1223 8a3c
00000110: 3559 d3bc 8d41 013c e83d a1bb 271f a9bc
00000120: d9c4 95bc 1861 4fbc 628b 60bc df41 04bc
00000130: 7f6e 213d f2ac 22bc 3fbb f7ba 5b8e 89bc
00000140: 5577 f639 17bd 90bc b6a2 c9bc b24d 893c
00000150: 7c44 84bc b6d2 e9b9 c43a a73c 05ae b03c
00000160: f035 a83c ab13 903c d48f 2b39 797c 9cbb
00000170: 5aeb 32bc 6208 67bc dc12 de3a b71e 8b3c
00000180: 6e6a 413c 7b00 54bb 0db8 bdbc c165 de3b
00000190: e8a2 b73c ba4f 8b3b 2e81 a43c 0aa8 3c3c
000001a0: 44af 9f3b 5ce9 b33c 6b74 5abc 9e0b 293b
000001b0: 1315 96b9 6160 b7bc bf10 77bc 554a 16bc
000001c0: 7e0f 66bc 583e c43b cde0 87bc f009 ac3c
000001d0: e433 3e3c c9cb 70bc f3fc cf3b 9c92 91bc
000001e0: d659 223c 3726 3d3c 6830 54bc a820 9a3c
000001f0: f649 b8bc 2d65 9b3c 2e1a d13b 5024 ddbc
00000200: 1c3b 703c 9d38 853c 5171 5cbc c998 a8bc
00000210: 11f0 9ebc ece1 9ebc 243b bbba d6e8 2f3b
00000220: 326e 95bc 0764 903c 9a87 7b3c 4bed ac3c
00000230: d065 7ebb 17dc 7c3c 8af9 7d3c 2534 acbb
00000240: 9a57 d3ba 1dee ae3c 5e96 a9bc 75b4 b7bb
00000250: 4abc ebb9 822e 9abc dcc1 24bc 205d b7bc
00000260: 77f9 a23c 5581 cabc b6cf 343b b036 60bb
00000270: 2e04 99bc 93ea cabb 9397 71bc 3903 52bc
00000280: 34a7 e5ba 85c2 73bc 9d3c 043d e069 cf3c
00000290: d220 703c 27df 5a3c 6d80 7a3b 5099 47bc
000002a0: e3dd 6cbb 29f0 14bc 8b5c 8dba 7e7e 933b
000002b0: 4e3a 993c 5fa8 573b 4f8c db3b 6335 9bbc
000002c0: 7032 633c 0b63 8f3b 3356 cc3c c782 bc3c
000002d0: 8fe2 aa3c 0ac3 193c 3c8c 2e3c 4c2a 773c
000002e0: 3217 a7bc 40bd a03b aade f8bb 847f f2bc
000002f0: 562b 553c 8d4c b3bc 5772 c4bc 07a0 a23c
00000300: c6e9 0f3c 54e3 78bc d669 71bb 1cdc 543c
00000310: 8f7e a23c 92bb 6f3c d111 3ebc bd94 273c
00000320: cac7 60bc d885 913c ab88 c53a 5679 bdbc
00000330: f7bf f23b a950 7fbc 09df 253c 2e8a 1039
00000340: 7938 bc3a e153 033d 0c37 95bc bf84 7fbb
00000350: 4f1e 25bc d71f ab3b 0f7d 98bc 5816 b5bc
00000360: 4e49 c63c 12b2 8d3c a01a 623c e753 dd3b
00000370: df72 883c e858 363c 40c1 9c3c ee06 95bc
00000380: 8f37 b73c cf4a f3bc 1b3a f5bb 8164 2f3c
00000390: 9daa 3fbb 42ec 41bc fa3a 44bc f418 dcbb
000003a0: 17fc 9dbc 61e1 893c ce63 7c3c b090 913b
000003b0: 22ed 1dbb 3a12 cebc cdbd b33c a0d0 6ebc
000003c0: 6a55 eb3b 2406 be3c ed49 66bc c8ae 403c
000003d0: e93b 8e3b 81fb a63c a19b 213c d74d b23c
000003e0: 8366 6d3b e537 2fbb eaaf 933c 3e3d 573c
000003f0: 19ab 90bc bb2b d3bb 6d00 663c 6ace 2939

layer1.bias f4 [32]
-0.005849469 -0.0034990108 -0.0031019188 -0.02053819 -0.0012222051 0.016735613 -0.025966974 -0.0053079356
-0.01208617 -0.019853694 0.024557197 -0.0042774286 0.010810322 0.012691035 -0.006245111 0.0019991887
0.02381643 -0.004489452 -0.006578439 0.016218152 0.02098701 0.010289299 -0.018666143 0.0033169151
0.0016936956 0.005955642 0.026380647 0.002798766 0.01506961 0.0055061486 0.006152507 -0.019011734
00000000: e7ac bfbb a94f 65bb 9049 4bbb b53f a8bc
00000010: 6632 a0ba 2019 893c b1b8 d4bc 31ee adbb
00000020: 1205 46bc 37a4 a2bc 2d2c c93c ac29 8cbb
00000030: c71d 313c 0fee 4f3c caa3 ccbb d204 033b
00000040: ac1a c33c 411c 93bb f28f d7bb eedb 843c
00000050: f3ec ab3c 7394 283c bde9 98bc 9a60 593b
00000060: fefe dd3a 8c27 c33b 3a1c d83c 806b 373b
00000070: 87e6 763c ec6c b43b f89a c93b 7fbe 9bbc

layernorm1.weight f4 [32]
0.99561745 0.9838769 0.9916955 0.9698398 0.99809325 1.0690144 1.0047807 0.99461585
0.99557966 1.0188755 0.9954162 0.9958969 0.98819613 0.9785475 0.9824764 1.0091993
0.9718333 0.99568486 1.0103791 0.98778194 0.9904854 0.9869932 0.952742 0.98194903
0.9939698 0.94879574 0.99683315 0.97163165 0.98041815 0.99918973 1.0148911 1.0133822
00000000: c9e0 7e3f 5bdf 7b3f c2df 7d3f 6c47 783f
00000010: 0a83 7f3f 77d5 883f a79c 803f 259f 7e3f
00000020: 4fde 7e3f 836a 823f 99d3 7e3f 19f3 7e3f
00000030: 6cfa 7c3f 1782 7a3f 9383 7b3f 712d 813f
00000040: 11ca 783f 34e5 7e3f 1a54 813f 47df 7c3f
00000050: 7490 7d3f 96ab 7c3f e6e6 733f 0361 7b3f
00000060: ce74 7e3f 47e4 723f 7530 7f3f dabc 783f
00000070: affc 7a3f e6ca 7f3f f4e7 813f 82b6 813f

layernorm1.bias f4 [32]
-0.0052635106 -0.008685937 -0.013718487 0.021289727 -0.0064645703 0.012459714 -0.0025650319 -0.015761241
0.0018465488 0.012415588 -0.025487691 -0.0046266033 -0.0055231736 -0.012190646 -0.010371798 -0.007977155
-0.048300933 -0.019401314 0.011390635 -0.017008627 0.013724993 0.0012998683 -0.01672431 -0.011189757
-0.010942235 0.0024160412 0.02431855 0.016096603 -0.017054861 0.0006941483 -0.0013409659 -0.002242032
00000000: 8779 acbb 764f 0ebc 81c3 60bc cb67 ae3c
00000010: bfd4 d3bb d423 4c3c 181a 28bb b81d 81bc
00000020: e507 f23a c06a 4b3c 90cb d0bc c39a 97bb
00000030: bdfb b4bb 46bb 47bc 79ee 29bc 9db2 02bc
00000040: 33d7 45bd 81ef 9ebc c99f 3a3c ad55 8bbc
00000050: cbde 603c 5860 aa3a 6c01 89bc 3e55 37bc
00000060: 0f47 33bc 7256 1e3b b237 c73c 06dd 833c
00000070: a3b6 8bbc 81f7 353a 59c3 afba 0eef 12bb

blocks.0.fcn_layer.weight f4 [32, 32]
0.03539663 0.06294656 0.008809145 -0.15665483 -0.13157402 0.12568533 0.105058365 -0.17376578
-0.14420356 0.054198384 0.035544388 -0.1319707 0.027595406 0.036731884 -0.08946228 0.11013345
0.08773844 -0.08545791 0.12074847 0.031082172 -0.04669824 -0.088318914 -0.0066407667 -0.03049608
-0.022828948 0.07309545 -0.14481467 0.10658112 -0.10808137 -0.017312476 0.08035578 0.03589488
0.011953965 -0.06845416 -0.105866335 -0.05361658 -0.044812433 -0.043140702 0.045545343 -0.010135831
-0.053689357 0.08952527 -0.1383388 0.06041628 0.13346303 0.14488362 0.055050712 -0.089438714
-0.060817767 0.1453346 0.011768721 0.06220365 -0.01225684 0.06141211 0.10517318 -0.0014126614
0.16558442 -0.17310587 -0.04639719 -0.11536149 -0.09196703 -0.1278404 0.06254681 0.021157356
0.016384972 0.17315331 -0.07424352 -0.007622094 0.077981055 -0.04883471 0.018329537 0.061221194
0.17655869 -0.07177223 0.034665894 -0.13234882 0.097345725 0.09796282 0.061935764 0.0395753
0.16507365 0.11770769 -0.050711967 0.14217453 0.13375145 -0.13910344 0.11388678 -0.06448695
-0.01657204 -0.13219465 -0.03008502 0.06614451 0.15709259 -0.03566227 0.031234259 0.18116786
-0.114436194 0.12166019 0.045756087 0.10405569 -0.0541024 -0.04017408 -0.10777025 -0.12296532
0.050655317 -0.11215868 0.11924248 -0.119179755 -0.14425339 -0.14368255 0.10488839 0.05543909
-0.020214444 0.029093781 -0.056045905 0.108718485 0.075229354 -0.15868402 0.13979982 -0.17505836
0.02960204 0.074530944 -0.05345211 0.012184716 0.073325604 0.15871541 -0.0205555 -0.030443383
0.17502494 -0.086540334 -0.058247723 -0.13593541 0.16443916 -0.0142989885 0.029969893 -0.08353785
0.18281843 0.15702638 -0.079240456 0.11602898 -0.09823103 0.04218255 0.025021432 0.0062706238
-0.0339291 -0.06330981 -0.09432321 -0.050212264 -0.15576336 -0.017794004 -0.026060179 -0.08551427
0.077267006 -0.15706395 0.14556308 -0.1126946 -0.11204588 0.0528587 0.10003024 -0.022847168
-0.06303066 -0.026094565 -0.1534069 -0.017231094 -0.011525353 0.14128828 0.08969527 -0.10156381
-0.11754081 0.04609983 0.007858477 0.009491631 -0.052273944 -0.07453535 0.11395791 -0.17382565
-0.0047795535 0.007563727 0.0011746002 -0.09518338 0.048391014 -0.06359298 0.024070907 -0.052372664
-0.16883674 0.15812762 0.06797198 0.14757907 -0.17790437 -0.15029669 -0.04347551 -0.11601462
-0.1247482 -0.00088064186 0.13895081 -0.18139394 0.14113557 0.14776284 -0.035395846 -0.12231614
0.16056813 -0.09932703 -0.048232928 0.1303273 -0.072490975 0.002317955 0.11033362 0.031620625
0.09379197 0.1255477 -0.06871624 -0.14642829 0.12672898 0.05961321 0.05412219 0.1030703
0.013921525 0.10589439 -0.14445622 -0.0008753349 0.18760121 -0.013964117 -0.07090901 0.1207453
0.15879837 -0.056464948 0.1448531 -0.053321954 0.121868834 -0.16197747 0.036284707 0.11689148
0.14516786 0.06963933 0.12039516 0.11485971 0.012529131 -0.14955994 0.023865247 0.16624093
0.07191604 0.1426502 0.0464739 -0.018298503 -0.08426145 0.04209488 0.031458776 0.0791348
0.14455196 0.058288064 0.146648 -0.009997818 -0.15054406 0.021769771 -0.19556874 0.051967725
00000000: 0ffc 103d 20ea 803d 3b54 103c 206a 20be
00000010: 57bb 06be a8b3 003e d728 d73d a8ef 31be
00000020: 19aa 13be 20ff 5d3d fe96 113d 5423 07be
00000030: c30f e23c 2c74 163d 0038 b7bd a58d e13d
00000040: 36b0 b33d 8f04 afbd f94a f73d 0aa0 fe3c
00000050: a746 3fbd 8ce0 b4bd ca9a d9bb ead2 f9bc
00000060: c603 bbbc 11b3 953d 4c4a 14be 3447 da3d
00000070: c459 ddbd e5d2 8dbc 9291 a43d 8206 133d
00000080: 90da 433c b231 8cbd 73d0 d8bd 0f9d 5bbd
00000090: 3e8d 37bd 4eb4 30bd c18d 3a3d c210 26bc
000000a0: 5fe9 5bbd 0659 b73d b0a8 0dbe 1077 773d
000000b0: 88aa 083e 5f5c 143e db7c 613d a52b b7bd
000000c0: 0d1c 79bd 98d2 143e 98d1 403c 41c9 7e3d
000000d0: ead0 48bc 448b 7b3d 0965 d73d 0d29 b9ba
000000e0: f68e 293e aa42 31be fb0a 3ebd a542 ecbd
000000f0: 3659 bcbd 98e8 02be 8b18 803d 3152 ad3c
00000100: c739 863c 1a4f 313e fd0c 98bd c2c2 f9bb
00000110: 88b4 9f3d e806 48bd d327 963c 13c3 7a3d
00000120: cdcb 343e 52fd 92bd d3fd 0d3d 7386 07be
00000130: 325d c73d bba0 c83d 5bb0 7d3d b619 223d
00000140: 1109 293e bb10 f13d 5ab7 4fbd 3396 113e
00000150: 24f6 083e 2271 0ebe 793d e93d bc11 84bd
00000160: 16c2 87bc 095e 07be dc74 f6bc c676 873d
00000170: e1dc 203e 9a12 12bd fdde ff3c 1184 393e
00000180: 865d eabd fa28 f93d bc6a 3b3d 261b d53d
00000190: 7a9a 5dbd 938d 24bd a6b6 dcbd 3ed5 fbbd
000001a0: f37b 4f3d 73b3 e5bd 6735 f43d 8414 f4bd
000001b0: 29b7 13be 8521 13be b9cf d63d 1914 633d
000001c0: c398 a5bc 1556 ee3c 6490 65bd cca7 de3d
000001d0: d911 9a3d 107e 22be af27 0f3e 8042 33be
000001e0: fa7f f23c aea3 983d 9af0 5abd 67a2 473c
000001f0: bc2b 963d 4b86 223e 0264 a8bc 6764 f9bc
00000200: bd39 333e 0f3c b1bd 2a95 6ebd a732 0bbe
00000210: bd62 283e 4e46 6abc 6c83 f53c e415 abbd
00000220: c134 3b3e 86cb 203e d248 a2bd 9aa0 ed3d
00000230: 5a2d c9bd 9cc7 2c3d bff9 cc3c ce79 cd3b
00000240: 3df9 0abd 93a8 81bd 872c c1bd 60ab 4dbd
00000250: 6e80 1fbe bbc4 91bc 287c d5bc 1b22 afbd
00000260: 2a3e 9e3d 5fd5 20be 7d0e 153e 6dcc e6bd
00000270: 4f78 e5bd 5d82 583d a8dc cc3d fc29 bbbc
00000280: 3816 81bd 45c4 d5bc b316 1dbe 3928 8dbc
00000290: d6d4 3cbc e0ad 103e 27b2 b73d b000 d0bd
000002a0: 3cb9 f0bd 2dd3 3c3d d7c0 003c c982 1b3c
000002b0: 341d 56bd fda5 98bd c462 e93d 5aff 31be
000002c0: cd9d 9cbb 24d9 f73b 0bf5 993a 81ef c2bd
000002d0: a835 463d 093d 82bd 5a30 c53c b884 56bd
000002e0: 8ae3 2cbe 35ec 213e e534 8b3d f81e 173e
000002f0: 902c 36be 60e7 19be 6013 32bd 1399 edbd
00000300: fc7b ffbd e0da 66ba 1f49 0e3e 55bf 39be
00000310: d885 103e 244f 173e 3cfb 10bd e280 fabd
00000320: f96b 243e f86b cbbd e48f 45bd 8574 053e
00000330: 2676 94bd d5e8 173b 98f6 e13d a184 013d
00000340: 0116 c03d 948f 003e 1abb 8cbd 4cf1 15be
00000350: 3ec5 013e fb2c 743d 3baf 5d3d 8516 d33d
00000360: 1c17 643c 28df d83d 55ec 13be bb76 65ba
00000370: 881a 403e c0c9 64bc be38 91bd 5049 f73d
00000380: 0a9c 223e ca47 67bd 5f54 143e 1f68 5abd
00000390: 5e96 f93d 6cdd 25be 469f 143d cd64 ef3d
000003a0: e2a6 143e 119f 8e3d bd91 f63d 913b eb3d
000003b0: fc46 4d3c 3e26 19be 0d81 c33c 103b 2a3e
000003c0: b748 933d e512 123e 6b5b 3e3d bee6 95bc
000003d0: 4491 acbd ae6b 2c3d ebda 003d 6d11 a23d
000003e0: 6e05 143e 77bf 6e3d e52a 163e e3cd 23bc
000003f0: 3928 1abe 8556 b23c 2c43 48be 1cdc 543d

blocks.0.fcn_layer.bias f4 [32]
-0.007885759 -0.10033797 0.016682431 0.11134594 0.10705673 0.14951298 -0.0797745 0.12962185
0.06403546 0.16304308 -0.10368357 0.17928518 -0.00026191698 -0.14059196 0.008600471 0.047502644
0.100552924 -0.16558962 0.0047898227 0.07731115 0.019032152 -0.0028515656 -0.1785623 -0.14317344
-0.062389452 0.032110196 -0.030663246 0.015339154 0.06396114 0.15321003 0.06910768 -0.06806835
00000000: 4533 01bc fe7d cdbd 98a9 883c 5709 e43d
00000010: 8f40 db3d ee19 193e d060 a3bd 97bb 043e
00000020: 0625 833d c4f4 263e 0d58 d4bd 8996 373e
00000030: e751 89b9 57f7 0fbe fde8 0c3c 2292 423d
00000040: b1ee cd3d 5390 29be f2f3 9c3b 4f55 9e3d
00000050: 51e9 9b3c 55e1 3abb 09d9 36be 0f9c 12be
00000060: 158c 7fbd fb85 033d 7d31 fbbc 1351 7b3c
00000070: 0ffe 823d 17e3 1c3e 5488 8d3d 6b67 8bbd

blocks.0.layer_norm.weight f4 [32]
0.9971227 0.99588954 1.0224881 0.9923332 1.0004739 1.2345532 0.99596256 1.0102013
1.4033034 1.0106908 1.134322 1.3086413 1.0772262 1.0400037 1.2165575 1.0126375
1.007142 1.0117427 1.2650952 1.0198307 1.2096885 1.0686541 1.0554707 1.0337063
1.0836244 1.2688097 1.0110192 1.2371312 1.2160637 1.0174899 1.2922659 1.0161846
00000000: 6f43 7f3f 9ef2 7e3f e4e0 823f 8c09 7e3f
00000010: 870f 803f d705 9e3f 67f7 7e3f 474e 813f
00000020: 729f b33f 515e 813f 7731 913f 8f81 a73f
00000030: 8ce2 893f d71e 853f 28b8 9b3f 1b9e 813f
00000040: 07ea 803f c980 813f a4ee a13f d089 823f
00000050: 13d7 9a3f a8c9 883f aa19 873f 7d50 843f
00000060: 34b4 8a3f 5b68 a23f 1469 813f 515a 9e3f
00000070: faa7 9b3f 1c3d 823f f868 a53f 5612 823f

blocks.0.layer_norm.bias f4 [32]
-0.0050294898 -0.002312804 0.019683905 -0.0058886698 0.00841184 0.23361616 -0.007448395 0.023519615
0.3043156 0.026042474 0.14432363 0.2649499 0.038589854 0.027169293 0.23051704 0.018106075
0.0045482176 0.026223002 0.25075722 0.032608476 0.22338538 0.03858002 0.05790065 0.031721655
0.057786457 0.25692576 0.011656212 0.23845856 0.22584946 0.011784449 0.268002 0.013696778
00000000: 6bce a4bb 6a92 17bb 2440 a13c bef5 c0bb
00000010: d0d1 093c 1339 6f3e aa11 f4bb 35ac c03c
00000020: 41cf 9b3e 0757 d53c 93c9 133e 83a7 873e
00000030: 6510 1e3d 2392 de3c a90c 6c3e 3153 943c
00000040: 3709 953b 9fd1 d63c 4063 803e 7790 053d
00000050: 23bf 643e 1506 1e3d 3b29 6d3d 91ee 013d
00000060: 7eb1 6c3d c68b 833e b2f9 3e3c 7b2e 743e
00000070: 1545 673e 9013 413c 8f37 893e 7368 603c

last_layer.weight f4 [1, 32]
0.012541519 -0.1113337 0.09115342 -0.017412338 0.048585087 -0.34847152 0.08291222 0.0094091445
-0.35000953 -0.082949 -0.11578501 -0.3269466 0.16936871 0.09250438 -0.32290962 0.013236325
0.08480605 -0.010883321 -0.3121385 0.19633965 -0.35979038 0.1662827 0.09709396 0.15501998
0.18238069 -0.29698452 0.16840658 -0.32008836 -0.35741764 0.15230623 -0.28777602 0.043217435
00000000: f17a 4d3c ec02 e4bd a5ae ba3d 52a4 8ebc
00000010: 2801 473d dc6a b2be e2cd a93d d028 1a3c
00000020: 7334 b3be 2ae1 a9bd b120 edbd 8b65 a7be
00000030: fe6e 2d3e f072 bd3d 6954 a5be 2cdd 583c
00000040: cbae ad3d f54f 32bc 9ed0 9fbe 430d 493e
00000050: 7236 b8be 0346 2a3e 33d9 c63d 8fbd 1e3e
00000060: 01c2 3a3e 5b0e 98be c672 2c3e 9fe2 a3be
00000070: 72ff b6be 2af6 1b3e 6157 93be c404 313d
